…
2024-01-12 18:36:30.357149: I tensorflow/compiler/mlir/mlir_graph_optimization_pass.cc:185] None of the MLIR Optimization Passes are enabled (registered 2)
2024-01-12 18:36:32.504899: I tensorflow/stream_executor/cuda/cuda_dnn.cc:369] Loaded cuDNN version 8101
Profiling traces number: 59500
Attack traces number: 500
Profiling traces number: 60000
Add desync noise...
=====ASCAD_30000_10.0_0_epoch250_byte2_1=====
Model: "best_cnn_id_rpoi_7500_chesctf"
_________________________________________________________________
Layer (type)                 Output Shape              Param #   
=================================================================
random_translation (RandomTr (None, 1400, 1)           0         
_________________________________________________________________
conv1d (Conv1D)              (None, 70, 4)             164       
_________________________________________________________________
average_pooling1d (AveragePo (None, 35, 4)             0         
_________________________________________________________________
batch_normalization (BatchNo (None, 35, 4)             16        
_________________________________________________________________
flatten (Flatten)            (None, 140)               0         
_________________________________________________________________
dense (Dense)                (None, 400)               56400     
_________________________________________________________________
dense_1 (Dense)              (None, 400)               160400    
_________________________________________________________________
dense_2 (Dense)              (None, 256)               102656    
=================================================================
Total params: 319,636
Trainable params: 319,628
Non-trainable params: 8
_________________________________________________________________
Epoch 1/250
38/38 - 3s - loss: 5.5944 - accuracy: 0.0048
 - lr: 0.00054 
Epoch 2/250
38/38 - 0s - loss: 5.5628 - accuracy: 0.0050
 - lr: 0.00059 
Epoch 3/250
38/38 - 0s - loss: 5.5475 - accuracy: 0.0061
…
38/38 - 0s - loss: 3.1406 - accuracy: 0.2955
 - lr: 0.00004 
Epoch 247/250
38/38 - 0s - loss: 3.1896 - accuracy: 0.2855
 - lr: 0.00003 
Epoch 248/250
38/38 - 0s - loss: 3.2762 - accuracy: 0.2733
 - lr: 0.00003 
Epoch 249/250
38/38 - 0s - loss: 3.2133 - accuracy: 0.2819
 - lr: 0.00002 
Epoch 250/250
38/38 - 0s - loss: 3.1691 - accuracy: 0.2937
 - lr: 0.00001 
Model: "best_cnn_id_rpoi_7500_chesctf"
_________________________________________________________________
Layer (type)                 Output Shape              Param #   
=================================================================
random_translation_1 (Random (None, 1400, 1)           0         
_________________________________________________________________
conv1d_1 (Conv1D)            (None, 70, 4)             164       
_________________________________________________________________
average_pooling1d_1 (Average (None, 35, 4)             0         
_________________________________________________________________
batch_normalization_1 (Batch (None, 35, 4)             16        
_________________________________________________________________
flatten_1 (Flatten)          (None, 140)               0         
_________________________________________________________________
dense_3 (Dense)              (None, 400)               56400     
_________________________________________________________________
dense_4 (Dense)              (None, 400)               160400    
_________________________________________________________________
dense_5 (Dense)              (None, 256)               102656    
=================================================================
Total params: 319,636
Trainable params: 319,628
Non-trainable params: 8
_________________________________________________________________
======HW accu======
0
Final rank:  0.0
GE smaller than 1: 8
GE smaller than 5: 8
======ID accu======
0
Final rank:  0.0
GE smaller than 1: 81
GE smaller than 5: 73
Profiling traces number: 100000
Add desync noise...
=====ASCAD_rand_30000_10.0_0_epoch250_byte2_1=====
Model: "best_cnn_id_rpoi_7500_chesctf"
_________________________________________________________________
Layer (type)                 Output Shape              Param #   
=================================================================
random_translation (RandomTr (None, 5000, 1)           0         
_________________________________________________________________
conv1d (Conv1D)              (None, 250, 4)            164       
_________________________________________________________________
average_pooling1d (AveragePo (None, 125, 4)            0         
_________________________________________________________________
batch_normalization (BatchNo (None, 125, 4)            16        
_________________________________________________________________
flatten (Flatten)            (None, 500)               0         
_________________________________________________________________
dense (Dense)                (None, 400)               200400    
_________________________________________________________________
dense_1 (Dense)              (None, 400)               160400    
_________________________________________________________________
dense_2 (Dense)              (None, 256)               102656    
=================================================================
Total params: 463,636
Trainable params: 463,628
Non-trainable params: 8
_________________________________________________________________
Epoch 1/250
38/38 - 1s - loss: 5.6685 - accuracy: 0.0039
 - lr: 0.00054 
Epoch 2/250
38/38 - 0s - loss: 5.6037 - accuracy: 0.0051
 - lr: 0.00059 
Epoch 3/250
38/38 - 0s - loss: 5.5710 - accuracy: 0.0073
…
38/38 - 0s - loss: 2.1327 - accuracy: 0.4914
 - lr: 0.00004 
Epoch 247/250
38/38 - 0s - loss: 2.2291 - accuracy: 0.4623
 - lr: 0.00003 
Epoch 248/250
38/38 - 0s - loss: 2.2451 - accuracy: 0.4601
 - lr: 0.00003 
Epoch 249/250
38/38 - 0s - loss: 2.0887 - accuracy: 0.5027
 - lr: 0.00002 
Epoch 250/250
38/38 - 0s - loss: 2.1606 - accuracy: 0.4860
 - lr: 0.00001 
Model: "best_cnn_id_rpoi_7500_chesctf"
_________________________________________________________________
Layer (type)                 Output Shape              Param #   
=================================================================
random_translation_1 (Random (None, 5000, 1)           0         
_________________________________________________________________
conv1d_1 (Conv1D)            (None, 250, 4)            164       
_________________________________________________________________
average_pooling1d_1 (Average (None, 125, 4)            0         
_________________________________________________________________
batch_normalization_1 (Batch (None, 125, 4)            16        
_________________________________________________________________
flatten_1 (Flatten)          (None, 500)               0         
_________________________________________________________________
dense_3 (Dense)              (None, 400)               200400    
_________________________________________________________________
dense_4 (Dense)              (None, 400)               160400    
_________________________________________________________________
dense_5 (Dense)              (None, 256)               102656    
=================================================================
Total params: 463,636
Trainable params: 463,628
Non-trainable params: 8
_________________________________________________________________
======HW accu======
0
Final rank:  0.0
GE smaller than 1: 2
GE smaller than 5: 2
======ID accu======
0
Final rank:  0.0
GE smaller than 1: 8
GE smaller than 5: 5
Profiling traces number: 45000
Attack traces number: 5000
Add desync noise...
=====CHES_CTF_40000_10.0_0_epoch250_byte0_1=====
Model: "best_cnn_id_rpoi_7500_chesctf"
_________________________________________________________________
Layer (type)                 Output Shape              Param #   
=================================================================
random_translation (RandomTr (None, 2200, 1)           0         
_________________________________________________________________
conv1d (Conv1D)              (None, 110, 4)            164       
_________________________________________________________________
average_pooling1d (AveragePo (None, 55, 4)             0         
_________________________________________________________________
batch_normalization (BatchNo (None, 55, 4)             16        
_________________________________________________________________
flatten (Flatten)            (None, 220)               0         
_________________________________________________________________
dense (Dense)                (None, 400)               88400     
_________________________________________________________________
dense_1 (Dense)              (None, 400)               160400    
_________________________________________________________________
dense_2 (Dense)              (None, 256)               102656    
=================================================================
Total params: 351,636
Trainable params: 351,628
Non-trainable params: 8
_________________________________________________________________
Epoch 1/250
50/50 - 1s - loss: 5.6135 - accuracy: 0.0042
 - lr: 0.00054 
Epoch 2/250
50/50 - 0s - loss: 5.5366 - accuracy: 0.0063
 - lr: 0.00059 
Epoch 3/250
50/50 - 0s - loss: 5.5004 - accuracy: 0.0094
…
50/50 - 0s - loss: 3.1642 - accuracy: 0.3056
 - lr: 0.00004 
Epoch 247/250
50/50 - 0s - loss: 3.2064 - accuracy: 0.2984
 - lr: 0.00003 
Epoch 248/250
50/50 - 0s - loss: 3.1540 - accuracy: 0.3086
 - lr: 0.00002 
Epoch 249/250
50/50 - 0s - loss: 3.1890 - accuracy: 0.3029
 - lr: 0.00002 
Epoch 250/250
50/50 - 0s - loss: 3.1304 - accuracy: 0.3141
 - lr: 0.00001 
Model: "best_cnn_id_rpoi_7500_chesctf"
_________________________________________________________________
Layer (type)                 Output Shape              Param #   
=================================================================
random_translation_1 (Random (None, 2200, 1)           0         
_________________________________________________________________
conv1d_1 (Conv1D)            (None, 110, 4)            164       
_________________________________________________________________
average_pooling1d_1 (Average (None, 55, 4)             0         
_________________________________________________________________
batch_normalization_1 (Batch (None, 55, 4)             16        
_________________________________________________________________
flatten_1 (Flatten)          (None, 220)               0         
_________________________________________________________________
dense_3 (Dense)              (None, 400)               88400     
_________________________________________________________________
dense_4 (Dense)              (None, 400)               160400    
_________________________________________________________________
dense_5 (Dense)              (None, 256)               102656    
=================================================================
Total params: 351,636
Trainable params: 351,628
Non-trainable params: 8
_________________________________________________________________
======HW accu======
0
Final rank:  0.0
GE smaller than 1: 2114
GE smaller than 5: 1937
======ID accu======
0
Final rank:  1.0
GE smaller than 1: 0
GE smaller than 5: 29572
Profiling traces number: 50000
Add desync noise...
=====AESRD_30000_10.0_0_epoch250_byte0_1=====
Model: "best_cnn_id_rpoi_7500_chesctf"
_________________________________________________________________
Layer (type)                 Output Shape              Param #   
=================================================================
random_translation (RandomTr (None, 3500, 1)           0         
_________________________________________________________________
conv1d (Conv1D)              (None, 175, 4)            164       
_________________________________________________________________
average_pooling1d (AveragePo (None, 88, 4)             0         
_________________________________________________________________
batch_normalization (BatchNo (None, 88, 4)             16        
_________________________________________________________________
flatten (Flatten)            (None, 352)               0         
_________________________________________________________________
dense (Dense)                (None, 400)               141200    
_________________________________________________________________
dense_1 (Dense)              (None, 400)               160400    
_________________________________________________________________
dense_2 (Dense)              (None, 256)               102656    
=================================================================
Total params: 404,436
Trainable params: 404,428
Non-trainable params: 8
_________________________________________________________________
Epoch 1/250
38/38 - 1s - loss: 5.6456 - accuracy: 0.0040
 - lr: 0.00054 
Epoch 2/250
38/38 - 0s - loss: 5.5994 - accuracy: 0.0053
 - lr: 0.00059 
Epoch 3/250
38/38 - 0s - loss: 5.5636 - accuracy: 0.0067
…
38/38 - 0s - loss: 0.0337 - accuracy: 0.9945
 - lr: 0.00004 
Epoch 247/250
38/38 - 0s - loss: 0.0207 - accuracy: 0.9985
 - lr: 0.00003 
Epoch 248/250
38/38 - 0s - loss: 0.0247 - accuracy: 0.9972
 - lr: 0.00003 
Epoch 249/250
38/38 - 0s - loss: 0.0134 - accuracy: 0.9995
 - lr: 0.00002 
Epoch 250/250
38/38 - 0s - loss: 0.0113 - accuracy: 0.9997
 - lr: 0.00001 
Model: "best_cnn_id_rpoi_7500_chesctf"
_________________________________________________________________
Layer (type)                 Output Shape              Param #   
=================================================================
random_translation_1 (Random (None, 3500, 1)           0         
_________________________________________________________________
conv1d_1 (Conv1D)            (None, 175, 4)            164       
_________________________________________________________________
average_pooling1d_1 (Average (None, 88, 4)             0         
_________________________________________________________________
batch_normalization_1 (Batch (None, 88, 4)             16        
_________________________________________________________________
flatten_1 (Flatten)          (None, 352)               0         
_________________________________________________________________
dense_3 (Dense)              (None, 400)               141200    
_________________________________________________________________
dense_4 (Dense)              (None, 400)               160400    
_________________________________________________________________
dense_5 (Dense)              (None, 256)               102656    
=================================================================
Total params: 404,436
Trainable params: 404,428
Non-trainable params: 8
_________________________________________________________________
======HW accu======
0
Final rank:  0.0
GE smaller than 1: 0
GE smaller than 5: 0
======ID accu======
0
Final rank:  0.0
GE smaller than 1: 51
GE smaller than 5: 47
Profiling traces number: 45000
Attack traces number: 5000
Profiling traces number: 50000
Add desync noise...
=====AESHD_30000_10.0_0_epoch250_byte7_1=====
Model: "best_cnn_id_rpoi_7500_chesctf"
_________________________________________________________________
Layer (type)                 Output Shape              Param #   
=================================================================
random_translation (RandomTr (None, 1250, 1)           0         
_________________________________________________________________
conv1d (Conv1D)              (None, 63, 4)             164       
_________________________________________________________________
average_pooling1d (AveragePo (None, 32, 4)             0         
_________________________________________________________________
batch_normalization (BatchNo (None, 32, 4)             16        
_________________________________________________________________
flatten (Flatten)            (None, 128)               0         
_________________________________________________________________
dense (Dense)                (None, 400)               51600     
_________________________________________________________________
dense_1 (Dense)              (None, 400)               160400    
_________________________________________________________________
dense_2 (Dense)              (None, 256)               102656    
=================================================================
Total params: 314,836
Trainable params: 314,828
Non-trainable params: 8
_________________________________________________________________
Epoch 1/250
38/38 - 1s - loss: 5.5902 - accuracy: 0.0040
 - lr: 0.00054 
Epoch 2/250
38/38 - 0s - loss: 5.5402 - accuracy: 0.0069
 - lr: 0.00059 
Epoch 3/250
38/38 - 0s - loss: 5.5200 - accuracy: 0.0081
…
38/38 - 0s - loss: 3.3003 - accuracy: 0.2927
 - lr: 0.00002 
Epoch 250/250
38/38 - 0s - loss: 3.4028 - accuracy: 0.2695
/home/nfs/venv/lib/python3.6/site-packages/numba/core/decorators.py:255: RuntimeWarning: nopython is set for njit and is ignored
  warnings.warn('nopython is set for njit and is ignored', RuntimeWarning)
 - lr: 0.00001 
Model: "best_cnn_id_rpoi_7500_chesctf"
_________________________________________________________________
Layer (type)                 Output Shape              Param #   
=================================================================
random_translation_1 (Random (None, 1250, 1)           0         
_________________________________________________________________
conv1d_1 (Conv1D)            (None, 63, 4)             164       
_________________________________________________________________
average_pooling1d_1 (Average (None, 32, 4)             0         
_________________________________________________________________
batch_normalization_1 (Batch (None, 32, 4)             16        
_________________________________________________________________
flatten_1 (Flatten)          (None, 128)               0         
_________________________________________________________________
dense_3 (Dense)              (None, 400)               51600     
_________________________________________________________________
dense_4 (Dense)              (None, 400)               160400    
_________________________________________________________________
dense_5 (Dense)              (None, 256)               102656    
=================================================================
Total params: 314,836
Trainable params: 314,828
Non-trainable params: 8
_________________________________________________________________
======HW accu======
0
Final rank:  0.0
GE smaller than 1: 33
GE smaller than 5: 5
======ID accu======
0
Final rank:  13.0
GE smaller than 1: 0
GE smaller than 5: 8119
